best_model_checkpoint.pt (torch, 14208 bytes, 12 tensors)

conv.bias f4 [64]
000000 40 95 e8 2c dd b5 e6 ac 65 a9 0d ac 05 d7 00 ac
       6.6104067e-12 -6.557184e-12 -2.0131338e-12 -1.8309254e-12
000010 0b 0a da 2d b7 7c 9d ac b9 83 da 2d cc 55 47 ae
       2.478819e-11 -4.4760545e-12 2.4842227e-11 -4.5323564e-11
000020 42 a5 6f 2b 2d 70 0d ac ce 9a 0e ac 12 f8 7d 2b
       8.51392e-13 -2.0099575e-12 -2.0265348e-12 9.0227923e-13
000030 6c e0 2b ae 77 74 c2 2c 29 d9 b8 ac ae e3 f3 2b
       -3.9080225e-11 5.526742e-12 -5.253704e-12 1.7329382e-12
000040 ed 2f 01 2c 92 f7 11 2d bc 5a 18 2d e5 05 b1 2e
       1.8358607e-12 8.297267e-12 8.660347e-12 8.050075e-11
000050 3e a5 0c ad 0a c4 18 ad 4b 9b 96 ab 1f 15 8c ad
       -7.99477e-12 -8.683729e-12 -1.0701243e-12 -1.5925537e-11
000060 c0 56 b0 ab 35 c5 83 2b 7c d0 cf ad e6 07 2c 2c
       -1.252963e-12 9.362846e-13 -2.3625761e-11 2.4447055e-12
000070 b6 34 23 ae 07 ac 58 ae e7 86 ff 2a 64 ca 6f ad
       -3.7108726e-11 -4.9265505e-11 4.5390707e-13 -1.3630517e-11
000080 38 a0 bb ad 80 9c 62 2d dc dd 90 ae 5f 49 0c ad
       -2.133059e-11 1.2881363e-11 -6.587772e-11 -7.97437e-12
000090 25 60 84 2b b8 38 58 2d bf 13 d7 2c 8e 07 03 28
       9.40585e-13 1.2290773e-11 6.11286e-12 7.273599e-15
0000a0 30 fc ff ae 4f fb 43 2d 3d 39 2c 2c 17 e2 1d ad
       -1.1640855e-10 1.1140268e-11 2.4474444e-12 -8.974619e-12
0000b0 53 19 16 2c e3 bd 0d 2e 80 af 61 ad 00 ee c0 2b
       2.133034e-12 3.222834e-11 -1.2828738e-11 1.3708479e-12
0000c0 17 04 32 2e c9 5b b5 2c 78 80 79 ad 14 0f b2 ab
       4.0476147e-11 5.1545196e-12 -1.4182537e-11 -1.2651846e-12
0000d0 8e 84 02 ad ef a0 02 2d 01 e6 a9 2b 65 53 d8 2d
       -7.4190775e-12 7.425379e-12 1.2072011e-12 2.4593392e-11
0000e0 36 ac 93 ab 54 1c 65 2d f0 99 35 2d 5d 26 57 2a
       -1.0492776e-12 1.3023433e-11 1.032284e-11 1.9109146e-13
0000f0 23 b4 96 2e 7c a4 a7 ad cb d5 f0 ac 4c dd e1 ae
       6.853209e-11 -1.9058748e-11 -6.844946e-12 -1.02711256e-10

conv.lin.weight f4 [64, 8]
000000 35 0f 22 bc 75 7d 78 3b f6 47 b7 3b 77 f6 0c bc
       -0.009891321 0.0037916575 0.005593295 -0.008603684
000010 84 39 6e 3b 11 6c 0a 3c 5a 61 19 3a e9 69 c5 bb
       0.00363502 0.008448617 0.00058509933 -0.0060245884
000020 b0 59 06 3c 94 e5 8b 3b 99 49 d9 3b 92 f7 dc bb
       0.008200094 0.004269311 0.006631088 -0.00674338
000030 fd cc bc 3b 32 b5 df bb 51 79 22 3c 82 d6 8a bb
       0.005761741 -0.00682702 0.009916619 -0.004236997
000040 0d 72 c5 3b 2b 2b 03 3b c1 9b 2d 3b e6 05 c9 ba
       0.006025559 0.0020014744 0.0026490542 -0.0015336841
000050 98 66 86 3b 16 9d 88 bb a6 6e 1a bc 94 ca 7b bb
       0.0041015856 -0.0041691167 -0.009425795 -0.0038420307
000060 6c 5f 00 3c 32 8e 2c bb df eb 4d 3b 77 69 72 bb
       0.00783525 -0.0026329872 0.0031421108 -0.0036989131
000070 2d ed f5 3b e0 16 c4 3b d0 3b 67 3b 59 7f a7 bb
       0.00750508 0.005984172 0.0035283454 -0.0051116166
000080 99 db 05 bc 42 20 ca 39 48 d1 bf bb c2 db 06 3c
       -0.008170032 0.00038552476 -0.0058538057 0.008231105
000090 21 27 1d bc 5a e6 92 3b bb 80 23 3c 88 1c a4 3b
       -0.009591849 0.0044830265 0.009979422 0.005008284
0000a0 2e 64 5f 3b 90 c0 1d bc 07 6e 1d 3c ee ff e0 ba
       0.0034086811 -0.00962843 0.009608752 -0.0017166117
0000b0 48 58 19 bc b7 8e 21 3c 5b 90 85 bb f0 75 39 ba
       -0.009359427 0.009860686 -0.0040760464 -0.0007074764
0000c0 7b f7 15 3c 20 08 e3 bb 60 ae e7 bb 68 55 d5 3a
       0.009153242 -0.006928459 -0.0070703477 0.0016276063
0000d0 e0 93 ad ba 23 50 17 3b 22 62 09 bc 00 cc 9c 39
       -0.0013242923 0.0023088537 -0.008385213 0.0002990663
0000e0 89 a9 91 bb 6a b1 a0 bb 4d a3 15 bc 98 53 ae 3b
       -0.004445259 -0.004903962 -0.009133172 0.0053200237
0000f0 5a d6 ff 3a f1 1b 0a bc 23 6c 02 3c 94 ab 45 3b
       0.0019518838 -0.008429513 0.007960352 0.0030162083
000100 51 29 f3 3a 3d 5c c0 bb 91 53 c5 3a 68 bf 1d 3c
       0.0018551742 -0.0058703707 0.0015054812 0.009628154
000110 20 a5 e1 3b c0 37 ff bb 1b 6f 15 3c f0 2f 4b 3a
       0.0068861395 -0.0077886283 0.009120728 0.00077509787
000120 fe 98 9d 3b 37 7e fe 3b 0b a8 0b 3c ec 7c ff bb
       0.004809498 0.007766511 0.008523951 -0.0077968743
000130 56 89 0f 3c 04 91 de bb e3 1f 44 3a 8a f8 e4 bb
       0.008760771 -0.0067921896 0.0007481558 -0.006987636
000140 c4 b1 0f bb c9 bf ed b9 69 02 9d ba ce 78 cf ba
       -0.0021926025 -0.00045347054 -0.0011978868 -0.0015828849
000150 63 b3 51 3a 3f 9d 21 3c 24 42 be 3b be 53 b7 3b
       0.0007999448 0.009864151 0.0058062244 0.0055946996
000160 14 1e 83 3b 6e 6c fd 3b 19 a2 f7 b9 b7 b5 4f 3a
       0.0040013883 0.007733873 -0.00047232283 0.0007923501
000170 fb 77 04 3b a7 19 0f bc c6 0c 04 bc 30 b2 a0 3a
       0.0020213115 -0.008734143 -0.008059686 0.0012260135
000180 d1 22 80 bb a3 72 3c b9 c2 36 15 bb b2 ec cf 3a
       -0.0039104004 -0.00017971783 -0.0022768234 0.0015863387
000190 f5 32 d3 3b cd 75 58 bb 7b c9 03 3c 9e 5c 01 3c
       0.0064452835 -0.00330292 0.008043642 0.007895617
0001a0 dc 6d fb bb e1 a3 fc bb 21 42 04 bc 70 1c b3 bb
       -0.0076730084 -0.0077099656 -0.008072407 -0.0054660365
0001b0 54 11 7e bb 9a 2d 40 ba d9 62 1e bb 52 8f a5 bb
       -0.0038767653 -0.0007331014 -0.0024167805 -0.0050524855
0001c0 b9 76 50 bb 46 af 6e bb a2 19 20 3c 53 b8 74 bb
       -0.0031809045 -0.003642039 0.009771736 -0.003734131
0001d0 eb 37 ec bb 9d d7 86 3b 93 fd 1f ba 28 dc fa 3b
       -0.0072088144 0.0041150586 -0.0006103154 0.007655639
0001e0 ff c0 cc 3b 98 86 16 3c 37 ea ef bb 36 c9 d2 3b
       0.006248593 0.009187363 -0.0073216218 0.0064326776
0001f0 b8 4f 09 3c db c8 a1 bb 46 ac 16 3c 9c a4 f5 3b
       0.008380823 -0.004937274 0.009196347 0.0074964296
000200 e9 71 e5 38 d8 f3 9d 3b 5b 32 65 bb 06 e5 0e bc
       0.00010940788 0.004820328 -0.003497264 -0.008721596
000210 bc 32 25 3b 26 4a 43 3b f1 22 d6 bb b8 ec 9e 3b
       0.0025207242 0.0029798835 -0.006534927 0.0048499964
000220 39 f3 0b bc be 0f 0d 3c 9e b8 1e 3c ad 6d 32 3b
       -0.0085418755 0.00860971 0.009687571 0.0027226016
000230 36 38 cd bb 53 a8 9f 3b 45 a2 df 3a 68 34 32 3b
       -0.0062628044 0.0048723607 0.001706191 0.002719188
000240 ee 6a 57 3b 65 7c f9 3b 9f bb 8c bb 5e 0a 13 bb
       0.0032870132 0.007613706 -0.004294827 -0.00224366
000250 5d c7 31 3b c0 13 8f 3a 82 3a 04 3c 33 1c ac bb
       0.0027126886 0.001091592 0.00807059 -0.005252385
000260 26 c5 c1 b9 30 68 f0 3a 80 6e 31 bb b3 41 de 3b
       -0.00036958716 0.0018341597 -0.002707392 0.0067827343
000270 ca a6 87 3a b4 57 18 bc d9 54 93 ba 1c 9f 94 bb
       0.001034939 -0.009298254 -0.0011240497 -0.004535569
000280 ac a6 7d 3a 0b 58 9b ba 7b 37 23 bc 22 ed f3 ba
       0.000967602 -0.00118518 -0.009961958 -0.00186101
000290 cf f5 80 ba 4b 6b 44 bb 04 9f 15 3c bc ff 0e bb
       -0.0009838882 -0.0029971178 0.009132151 -0.002181991
0002a0 c1 81 d2 3b cc 83 22 3b ba 4a 0a bc 48 c0 19 3b
       0.0064241593 0.0024797795 -0.008440668 0.0023460556
0002b0 c9 2e 08 3c 4b 41 d6 bb 11 f3 d3 bb e8 5f 20 3c
       0.008311936 -0.0065385452 -0.0064681848 0.009788491
0002c0 99 af 03 3c cf 5d b6 bb 15 ee c5 3b 0f 3e a5 ba
       0.008037471 -0.005565382 0.0060403445 -0.0012606996
0002d0 f4 26 21 bc 21 79 4b 3a c5 3e 55 3b 14 95 44 bb
       -0.009835947 0.0007761885 0.0032538634 -0.0029996084
0002e0 94 ee 63 3b 1c 1c 0c bc cb dc e2 3b 16 79 0b 3c
       0.0034779655 -0.008551624 0.006923293 0.008512756
0002f0 aa c4 b5 3b 36 93 dd 3a 88 da 56 3b 96 17 ed bb
       0.005547126 0.0016904834 0.0032784063 -0.0072354777
000300 72 c4 23 bb df bd 7a ba 37 6a b6 bb b6 0b f2 bb
       -0.0024988917 -0.0009565036 -0.005566861 -0.00738665
000310 69 13 dc 3b b0 48 de 3b ae cf 14 bc 18 8b 50 3b
       0.006716181 0.0067835674 -0.009082718 0.0031821188
000320 1d 4d 85 3b 80 a7 1b 3c 75 97 bd 3b b9 9e 16 3c
       0.0040680305 0.009500384 0.0057858774 0.009193116
000330 6d 55 56 bb 8d 87 e5 3b 6d 43 05 3c fd b7 1a bc
       -0.0032704726 0.0070046843 0.008133751 -0.00944328
000340 d2 72 03 bc 9d eb 04 3b ef e9 b3 3b 25 dc a0 bb
       -0.008022981 0.0020282038 0.0054905335 -0.004909056
000350 e2 8f 77 3a 86 b7 50 36 6d 12 2a 3b 26 14 b0 bb
       0.00094437425 3.110124e-06 0.0025950924 -0.0053734956
000360 46 d2 b8 3b b9 f6 d9 3b 85 5e e3 bb 08 47 c8 38
       0.005640301 0.006651726 -0.006938758 9.549974e-05
000370 97 31 12 38 44 82 52 3b c6 97 18 3c 70 31 40 3b
       3.4855297e-05 0.0032121101 0.009313529 0.0029326342
000380 df bb 14 bb 53 70 13 3c 8a b2 77 bb 45 5e 3d bb
       -0.0022694988 0.008998948 -0.0037795627 -0.00288953
000390 0e ec 3f 3a 81 a4 f8 bb 29 7b 90 3a a6 52 de bb
       0.00073212467 -0.00758797 0.0011023033 -0.006784755
0003a0 76 36 87 3a 64 af 80 3a b8 ca b9 3a 74 b9 09 bc
       0.0010315913 0.0009817895 0.0014174795 -0.008406032
0003b0 25 2d 1b bc ad f7 97 3b 3c f9 0c 3c 18 63 11 bc
       -0.0094712125 0.0046376796 0.008604344 -0.008873723
0003c0 28 d2 72 3b 96 1f f1 bb e7 f6 26 3a 9a b4 18 3c
       0.0037051532 -0.0073585017 0.0006369189 0.0093204025
0003d0 d7 3d f7 3b 3b 5c ef bb 4f 4c cb 3b 24 27 ab 3b
       0.0075452137 -0.007304696 0.006204165 0.005223172
0003e0 e8 64 91 b7 8f 7c 1e 3c 10 c6 82 bb 0f 47 19 bb
       -1.7332335e-05 0.009673252 -0.003990896 -0.0023388301
0003f0 28 71 a6 bb 89 d7 b9 3a aa c2 2c 3b 80 e0 50 3a
       -0.0050794072 0.0014178614 0.0026361146 0.00079680234

bn.weight f4 [64]
000000 07 cf cc 3d ab ca cc 3d b1 cc cc 3d 0c cd cc 3d
       0.10000425 0.09999593 0.09999979 0.10000047
000010 50 cc cc 3d 48 cd cc 3d 62 cc cc 3d f8 cb cc 3d
       0.09999907 0.10000092 0.099999204 0.099998415
000020 7a cd cc 3d 53 cd cc 3d 03 cd cc 3d b1 cc cc 3d
       0.10000129 0.100001 0.100000404 0.09999979
000030 af ca cc 3d 1f cb cc 3d ba cd cc 3d 55 cc cc 3d
       0.09999596 0.0999968 0.10000177 0.09999911
000040 a6 cc cc 3d 92 cc cc 3d 73 cc cc 3d 63 ce cc 3d
       0.09999971 0.09999956 0.09999933 0.10000303
000050 1e ce cc 3d e2 cd cc 3d 7c cb cc 3d ae cd cc 3d
       0.10000251 0.100002065 0.09999749 0.10000168
000060 6f cc cc 3d d7 cc cc 3d e5 ca cc 3d 07 cd cc 3d
       0.0999993 0.100000076 0.099996366 0.10000043
000070 53 cc cc 3d 2d cc cc 3d 62 cb cc 3d 12 cd cc 3d
       0.09999909 0.09999881 0.0999973 0.100000516
000080 75 cc cc 3d 4c ca cc 3d 9e d0 cc 3d 1e cd cc 3d
       0.099999346 0.099995226 0.10000728 0.100000605
000090 c1 cc cc 3d f6 c8 cc 3d d5 cc cc 3d a0 cc cc 3d
       0.09999991 0.09999268 0.10000006 0.099999666
0000a0 be ca cc 3d 76 c9 cc 3d c1 cc cc 3d e2 cb cc 3d
       0.099996075 0.09999363 0.09999991 0.09999825
0000b0 c3 ce cc 3d 1e cf cc 3d 40 cb cc 3d 54 cd cc 3d
       0.10000374 0.10000442 0.09999704 0.10000101
0000c0 77 ca cc 3d e8 cc cc 3d d9 cd cc 3d df cc cc 3d
       0.099995546 0.1000002 0.100002 0.100000136
0000d0 3d cc cc 3d ae cd cc 3d d2 cc cc 3d 2e cd cc 3d
       0.09999893 0.10000168 0.10000004 0.100000724
0000e0 90 c9 cc 3d c8 ca cc 3d cd cd cc 3d cd cc cc 3d
       0.099993825 0.09999615 0.10000191 0.1
0000f0 65 cd cc 3d eb ca cc 3d e2 cd cc 3d 9a d1 cc 3d
       0.100001134 0.09999641 0.100002065 0.10000916

bn.bias f4 [64]
000000 ab 0d 5b 37 ac 77 89 b7 38 ca bb b5 c1 2f d2 35
       1.30565995e-05 -1.63874e-05 -1.3991439e-06 1.5660117e-06
000010 fe c1 6d b7 cb 4e 98 36 0b 34 3b b5 e7 1c 34 b6
       -1.4171468e-05 4.5391257e-06 -6.973866e-07 -2.6838914e-06
000020 f7 fa 29 37 df 1e 97 35 d6 7e ca 36 77 af 0b b6
       1.0131617e-05 1.1259361e-06 6.0348348e-06 -2.0814748e-06
000030 d3 f9 94 b7 da d2 4c b7 bb 9d 83 37 4a 53 81 b6
       -1.7759308e-05 -1.220844e-05 1.5689866e-05 -3.8541957e-06
000040 f0 6d 03 b6 62 bd 05 b7 9f 41 b4 b6 9f 2c 41 37
       -1.9584513e-06 -7.971512e-06 -5.3720573e-06 1.1514086e-05
000050 02 82 bd 36 c3 9a 4d 37 16 a2 4f b7 4d 6d b4 37
       5.647774e-06 1.2254985e-05 -1.23759e-05 2.150857e-05
000060 c4 9c 13 b6 d7 0d e6 b4 35 be 9e b7 3f 3b 0e 36
       -2.1995957e-06 -4.2850908e-07 -1.892364e-05 2.1194135e-06
000070 0e 1f cd b5 99 75 6c b7 d5 66 60 b7 f6 7c 69 36
       -1.5282728e-06 -1.40940765e-05 -1.3375383e-05 3.4792442e-06
000080 a0 0f 57 b5 e7 d1 47 b7 3f 33 99 37 fb 29 2c 37
       -8.011648e-07 -1.1910196e-05 1.8262885e-05 1.0261773e-05
000090 93 e4 2c b5 d5 1c 4f b7 99 c5 6d 35 0e 22 91 b5
       -6.440761e-07 -1.2344874e-05 8.857692e-07 -1.0813253e-06
0000a0 15 d6 06 b7 c7 bd 59 b7 ab 05 dd b5 2d bd 9c b6
       -8.036867e-06 -1.2978394e-05 -1.6467433e-06 -4.6711853e-06
0000b0 73 27 19 37 12 9f 9d 37 6c f3 6e b7 df df 69 36
       9.128696e-06 1.8789931e-05 -1.42425815e-05 3.4850016e-06
0000c0 48 b3 0c b7 2e 83 1f 35 06 55 25 37 a9 bd 57 b5
       -8.386392e-06 5.942301e-07 9.854562e-06 -8.0369733e-07
0000d0 68 39 39 b7 d8 06 40 37 d7 38 cb 36 32 d3 d5 36
       -1.1040225e-05 1.1445685e-05 6.0564885e-06 6.372481e-06
0000e0 46 92 85 b7 8a 22 67 b7 d5 10 1c 37 79 c0 a6 32
       -1.592295e-05 -1.3776715e-05 9.302244e-06 1.941247e-08
0000f0 af ac 85 36 c9 3c 51 b7 7c 9a f9 36 17 58 af 37
       3.983812e-06 -1.2471523e-05 7.4387626e-06 2.0902646e-05

bn.running_mean f4 [64]
000000 47 93 a3 3b bd 99 87 3b 11 07 8f ba 44 32 b8 3b
       0.004991922 0.0041382 -0.001091214 0.0056212265
000010 48 ff 31 3a b9 e2 f7 39 79 17 b8 bb a4 df 8c bb
       0.0006790054 0.00047280433 -0.0056180325 -0.004299121
000020 79 91 71 3b a3 75 88 3b a7 34 8e 3b 2c 64 18 bb
       0.003686039 0.004164414 0.0043397727 -0.0023253066
000030 12 13 17 3b ea e4 1e bc 45 18 3b 3a f4 7f a5 3b
       0.0023052138 -0.009698132 0.00071371003 0.0050506536
000040 d4 87 1a bb 3d 01 e3 3b 38 eb 50 3b 19 3e 07 bb
       -0.0023579495 0.006927638 0.0031878483 -0.0020636378
000050 8e 30 87 bb 59 bb 48 bb 39 23 b4 ba 39 78 d9 3b
       -0.004125661 -0.0030629246 -0.0013743407 0.006636646
000060 91 78 12 bb af 4d 3d 3c c1 4f 01 3b f3 c0 39 3b
       -0.0022349695 0.011554166 0.0019731375 0.0028343766
000070 d2 35 21 bb 14 08 82 ba 0d 98 29 3b 52 03 80 b9
       -0.002459873 -0.000992062 0.0025877983 -0.00024416536
000080 b0 ab 8e bb 63 d0 00 3b 1d a9 f1 bb 1c d0 14 3b
       -0.004353963 0.0019655458 -0.007374896 0.002270705
000090 47 92 8f 3b 66 da c8 bb 97 41 ef ba 22 cb c1 bb
       0.0043814513 -0.0061295507 -0.00182538 -0.005914108
0000a0 bc 9a 08 bb be 22 36 3b 33 f0 0a 3a ce e1 2f 3a
       -0.0020844182 0.0027791704 0.00053000747 0.0006709368
0000b0 89 ef cf bb 46 96 07 b8 11 a6 d4 ba 7f 80 f8 3b
       -0.0063456935 -3.232646e-05 -0.0016223808 0.0075836773
0000c0 54 92 d1 b9 8f c4 45 bb 71 67 40 bc d9 6d ee 3b
       -0.0003997261 -0.0030176973 -0.011743412 0.0072762785
0000d0 5c 43 8a 3b 0f ec 18 3c 1f 08 b4 3b dc f6 e9 39
       0.0042194556 0.0093336245 0.005494132 0.00044625148
0000e0 7e ee 59 3b ce 84 58 bb d7 f5 9c bb 9e 44 62 3a
       0.0033253725 -0.0033038142 -0.0047900486 0.00086314406
0000f0 80 ed 02 ba 67 41 a2 bb 2b 04 81 3b 37 34 a9 bb
       -0.00049944967 -0.004951644 0.0039372644 -0.005163695

bn.running_var f4 [64]
000000 88 e7 3d 3e 5e 13 3e 3e 3f 8e 3e 3e b8 1d 3e 3e
       0.18545353 0.18562075 0.1860895 0.18566024
000010 3c 35 3f 3e ec 02 3e 3e 86 b3 3e 3e fa ca 3d 3e
       0.18672651 0.18555802 0.1862317 0.1853446
000020 72 79 3e 3e 1e c7 3d 3e 65 83 3e 3e 61 b6 3e 3e
       0.18601015 0.18532988 0.1860481 0.1862426
000030 68 ed 3d 3e 9d 46 3f 3e 93 f3 3d 3e e5 31 3e 3e
       0.18547595 0.1867928 0.18549947 0.18573721
000040 3e b8 3e 3e 81 60 3f 3e 06 0b 3e 3e 3b e0 3d 3e
       0.1862497 0.18689157 0.18558893 0.18542568
000050 9e c5 3d 3e 3a 29 3f 3e 09 0b 3e 3e 8d f8 3e 3e
       0.18532416 0.1866807 0.18558897 0.18649502
000060 7a 19 3f 3e ee 7b 42 3e d1 ce 3d 3e 5e 4e 3e 3e
       0.18662062 0.18992588 0.18535925 0.18584582
000070 19 0f 3e 3e 41 24 3e 3e 68 0c 3e 3e 35 c6 3d 3e
       0.18560447 0.18568517 0.1855942 0.18532641
000080 0e 5f 3e 3e 95 f2 3d 3e a2 4d 3e 3e 3b 97 3e 3e
       0.18590948 0.18549569 0.18584302 0.18612377
000090 6b 43 3e 3e 2e d6 3d 3e 88 87 3e 3e ee 3f 3e 3e
       0.18580405 0.18538734 0.18606389 0.18579075
0000a0 3d c1 3d 3e 0b d9 3d 3e 24 0b 3e 3e 47 c9 3d 3e
       0.18530746 0.18539827 0.18558937 0.18533812
0000b0 95 f3 3d 3e 00 47 3e 3e f2 86 3e 3e bd 42 3e 3e
       0.1854995 0.18581772 0.18606165 0.18580146
0000c0 9f dc 3d 3e 83 cc 3d 3e 4d df 40 3e d1 61 3e 3e
       0.18541192 0.18535046 0.18835182 0.18592001
0000d0 7d 5c 3e 3e 76 f8 3e 3e 67 c6 3e 3e ee f4 3d 3e
       0.18589969 0.18649468 0.18630372 0.18550465
0000e0 d9 0c 3e 3e a6 e3 3d 3e bb 6c 3e 3e 11 d1 3d 3e
       0.18559588 0.18543872 0.18596165 0.18536784
0000f0 8f c3 3d 3e b8 25 3e 3e e1 fb 3d 3e 06 d1 3d 3e
       0.18531631 0.18569076 0.18553115 0.18536767

output.0.weight f4 [1, 64]
000000 08 8f ad 3b b4 0d 0c bc 99 99 9e ba 95 b5 6e 3a
       0.0052965917 -0.008548189 -0.0012100219 0.00091060373
000010 cb 22 01 3c 4d 98 6d bb 81 8e 3c 3b 86 44 cb 3a
       0.00788183 -0.0036254108 0.0028771462 0.0015508092
000020 91 b6 cb 3b 3e d4 29 3a d7 bb 94 3b 2b d4 c5 bb
       0.006216832 0.0006478465 0.004538994 -0.0060372553
000030 c9 65 d9 bb 17 02 12 3c 7d 27 e0 bb d5 91 b4 ba
       -0.006634448 0.008911631 -0.006840645 -0.0013776371
000040 54 99 9d ba c2 1a 20 3c 74 31 b6 ba 18 81 f9 bb
       -0.0012023845 0.009772005 -0.0013900236 -0.007614266
000050 9a af 26 bb 5b 4b a9 3b e4 82 90 3b ea 04 0f 3c
       -0.0025434257 0.005166454 0.0044101346 0.008729199
000060 61 9b 05 bb 98 9f b4 3b a4 bf 15 bc 5c 75 98 3b
       -0.0020386802 0.005512189 -0.009139929 0.004652662
000070 83 b1 96 3b 2d 9f ec 3b 3c 82 a2 bb 38 2e 14 bb
       0.0045987978 0.0072211237 -0.004959373 -0.0022610556
000080 07 9c 1e 3b a1 5d e8 bb b8 63 02 bc a2 16 11 bc
       0.0024201886 -0.0070912396 -0.007958345 -0.008855494
000090 1d ab 0f 3a fa ff ca 3b 42 cb 28 3b d1 8a 1f 3a
       0.0005480515 0.0061950656 0.0025755917 0.0006086054
0000a0 c8 04 64 3b cc f5 cc bb 5c 10 c4 3a 6e 9a ee ba
       0.003479289 -0.006254887 0.0014958489 -0.0018203983
0000b0 ac 66 a2 bb 0e 82 0d 3c 9e 2e fd bb 11 8f 12 3b
       -0.004956087 0.0086369645 -0.0077265045 0.0022363106
0000c0 3f da 0f bc 94 62 ab 39 32 ae 91 bb 66 8f 75 3b
       -0.008780061 0.00032689108 -0.0044458145 0.0037469505
0000d0 5f 30 a9 bb 88 ec eb 3b 6f cc ef bb 0f 0f c5 3b
       -0.005163237 0.0071998276 -0.0073180716 0.006013758
0000e0 b8 01 ec bb b5 58 af 3b 86 16 8a bb 3a 03 b5 b7
       -0.0072023533 0.005351151 -0.004214111 -2.1578384e-05
0000f0 1e 9e ef ba f2 9d d4 3b 83 cb 6b 3b 93 88 10 bc
       -0.0018281376 0.006488555 0.0035979457 -0.008821624

momentum_buffer f4 [64]
000000 26 d3 aa b1 a8 0b ec 31 89 07 35 30 3f 2f f1 30
       -4.971656e-09 6.869829e-09 6.5858125e-10 1.7548486e-09
000010 cd 46 e2 b1 e0 f0 fa 2f 75 79 22 b2 04 6e 6e 32
       -6.585515e-09 4.5645887e-10 -9.457257e-09 1.3878438e-08
000020 f7 40 ee b0 bb fe b2 af 2d 02 1f ae 08 f3 05 b2
       -1.7335243e-09 -3.2559008e-10 -3.6154347e-11 -7.796878e-09
000030 55 fc ad 32 57 b7 ee 2f 80 4c 16 32 c8 67 3f b1
       2.0254598e-08 4.3422219e-10 8.748543e-09 -2.785315e-09
000040 e4 b4 51 b0 af 05 a9 b1 c6 f5 8a b1 d7 19 04 b3
       -7.629082e-10 -4.9191935e-09 -4.04427e-09 -3.0757146e-08
000050 92 e5 e6 b1 b1 0f 42 32 62 ea 54 31 5c c3 91 31
       -6.71998e-09 1.1295854e-08 3.0983291e-09 4.242265e-09
000060 79 83 9f b0 87 51 f3 ae f3 01 cd 32 26 10 43 b1
       -1.1606139e-09 -1.1064843e-10 2.3866027e-08 -2.8385414e-09
000070 63 07 ef 32 bc de 36 32 76 23 28 31 68 64 7a 31
       2.7826621e-08 1.0644438e-08 2.4467375e-09 3.6436862e-09
000080 45 4c d4 31 9f b1 a4 30 db 11 4e 32 eb 97 a3 30
       6.178683e-09 1.1983053e-09 1.1994838e-08 1.1902989e-09
000090 c3 9f 17 af b0 24 37 b2 f9 0e 78 b1 a0 61 cf 2d
       -1.3790129e-10 -1.0660344e-08 -3.609726e-09 2.357653e-11
0000a0 50 bd 64 33 68 e1 ab b1 f2 3d 7b af da 0a a0 31
       5.3257565e-08 -5.0023807e-09 -2.2850324e-10 4.6578466e-09
0000b0 78 ea b5 af 7e b7 da b2 83 df bf b1 cc c6 5c 31
       -3.3090308e-10 -2.5461983e-08 -5.584242e-09 3.2127216e-09
0000c0 c2 62 fa b2 68 ff cf b0 52 5f 90 31 79 82 23 b1
       -2.914874e-08 -1.5133823e-09 4.2017883e-09 -2.3793787e-09
0000d0 c3 7c 59 31 06 bb 5b b1 72 39 1c b1 f8 20 c2 b2
       3.1648575e-09 -3.1975005e-09 -2.2733642e-09 -2.2599565e-08
0000e0 c3 76 50 b1 e1 9c 06 b1 93 0f c7 b0 6d 37 83 ae
       -3.0335492e-09 -1.9588742e-09 -1.4483582e-09 -5.967036e-11
0000f0 9e 9b 86 b2 7a 5a 83 31 45 77 ce 30 a4 5a fd 32
       -1.567042e-08 3.822888e-09 1.5022371e-09 2.9494295e-08

momentum_buffer f4 [64, 8]
000000 32 fc 97 3a 88 d8 51 3b 30 1e 1a 3c b0 b2 6f 3c
       0.0011595546 0.0032019932 0.009406611 0.014630005
000010 43 47 05 bd ed 2c d0 3b 59 5d 73 3c 06 c1 03 b5
       -0.032538664 0.006353012 0.014853799 -4.908219e-07
000020 04 77 89 ba 9f fb 12 bb ac 00 ff bb 98 fd 50 bc
       -0.001048774 -0.002242781 -0.0077820625 -0.012755774
000030 e5 45 fd 3c 06 1b 86 bb 95 ab 45 bc 2d 52 b9 b4
       0.030917117 -0.004092577 -0.012064834 -3.4518726e-07
000040 74 a2 00 b7 bc b7 1b 39 fc 20 d3 b7 f5 43 de b9
       -7.667219e-06 0.00014850398 -2.516852e-05 -0.00042393772
000050 f9 46 59 3b d4 10 9e 39 26 63 c4 b9 ae 0b a8 b4
       0.0033153875 0.00030148646 -0.00037457905 -3.1300937e-07
000060 06 70 c6 38 e9 78 3a 39 12 fe 38 3a c3 d6 9a 3a
       9.462242e-05 0.00017783385 0.00070569024 0.0011813272
000070 c3 60 3c bb 52 89 d6 39 a5 5b 9d 3a 64 93 df b4
       -0.0028744198 0.00040919572 0.0012005462 -4.1644228e-07
000080 13 f6 c3 b9 dc a9 3d bb 7d da 88 bb a2 f9 10 bb
       -0.00037376638 -0.0028940355 -0.0041764365 -0.002212145
000090 f6 53 22 bc 0b 3a b5 bb 0e 23 83 bb 5c 0e db 34
       -0.009907713 -0.005530601 -0.0040019816 4.0802377e-07
0000a0 e2 1a 84 39 e5 3c a3 3a 2a 7a 12 3b e8 da 84 39
       0.0002519703 0.0012454061 0.0022350647 0.000253401
0000b0 90 83 1e 3c fb d5 57 3b 88 2b ed 3a 98 8d 77 b3
       0.009674922 0.0032933939 0.0018094638 -5.7637948e-08
0000c0 f8 bb 8d b7 07 a0 77 b9 52 be aa b9 55 1a 49 3a
       -1.689604e-05 -0.0002361537 -0.00032566726 0.0007671465
0000d0 b2 1b d4 bb 6c ed 9c ba e5 ea b4 b9 ec 4a d1 32
       -0.006473028 -0.0011972613 -0.00034507285 2.4364873e-08
0000e0 02 5a 72 ba 00 f8 8c bb 0e 22 1f bc 86 f2 03 bc
       -0.00092449796 -0.004302025 -0.009712709 -0.008053428
0000f0 72 d7 48 bc 78 93 3b bc 3b 02 5f bc da ec 83 34
       -0.012258397 -0.0114487335 -0.013611372 2.4572984e-07
000100 4c f8 c5 39 ce 74 8b 39 b6 f3 2c 3b 1c 0b a7 3b
       0.00037759764 0.00026599172 0.002639038 0.00509776
000110 3d cd 76 bc d5 29 86 3a 60 b9 a8 3b 76 9b 87 33
       -0.015063581 0.0010235856 0.0051490515 6.3147056e-08
000120 54 b4 38 39 2b ea 28 3a b1 91 bc 3a be 74 c7 3a
       0.00017614785 0.0006443585 0.0014386681 0.0015217287
000130 81 a7 26 bb 07 61 5b 3a 83 5f b5 3a b4 d0 18 b5
       -0.002542943 0.0008368645 0.0013837669 -5.6928116e-07
000140 2e a4 6f 39 01 b6 b1 b8 89 52 c0 3a d1 c7 2f 3b
       0.00022853978 -8.4739186e-05 0.0014673035 0.002682198
000150 4c d3 05 bc f9 98 f4 39 43 19 38 3b 88 b4 f4 34
       -0.008168053 0.0004665328 0.002809123 4.5579895e-07
000160 54 40 b5 39 4c 38 f7 3a 5e 0c 84 3b 37 38 83 39
       0.00034570938 0.0018861382 0.0040297946 0.0002502815
000170 c7 0a b0 3c 0f 97 cc 3b 85 f5 8e 3b 4c 7f d6 33
       0.021489514 0.0062435935 0.0043627643 9.988307e-08
000180 ec 2f cb ba d2 e0 86 bb d3 00 56 bc f7 ff 9f bc
       -0.0015501953 -0.004116156 -0.01306172 -0.019531233
000190 d5 97 0e 3d 15 d2 1f bc ec 02 b1 bc 19 ac 2c 35
       0.034812767 -0.009754677 -0.021607839 6.432543e-07
0001a0 54 0b f0 b9 4d 4f 5c bb 4e b5 96 bb d0 34 5f bb
       -0.00045784807 -0.0033616603 -0.00459925 -0.0034058578
0001b0 0c a1 0f bc 96 46 cb bb 38 05 a0 bb 49 fd dc b4
       -0.008766424 -0.006203483 -0.0048834346 -4.1162482e-07
0001c0 10 fd 8d 3a 09 e4 c1 3b 70 a6 35 3c fd cd e3 3b
       0.0010832865 0.0059170765 0.011087045 0.006952046
0001d0 ba 0d d2 3c 88 31 6b 3c 6d 6a 52 3c 90 6c 27 35
       0.025641311 0.014355071 0.012842757 6.237033e-07
0001e0 75 a0 38 b9 cf f6 91 b9 fa 64 b1 ba d6 9d 25 bb
       -0.00017607382 -0.00027840442 -0.0013534122 -0.002527108
0001f0 75 c9 dd 3b be f4 52 ba 40 06 32 bb 38 f1 23 35
       0.0067684003 -0.00080473337 -0.002716437 6.107325e-07
000200 e2 10 33 b8 c7 ac 03 39 98 89 84 b9 45 20 27 ba
       -4.269265e-05 0.00012557498 -0.00025279517 -0.0006375353
000210 e0 fa 75 3b f6 32 11 39 fd 3e 19 ba 01 22 d4 34
       0.0037533566 0.00013847262 -0.0005845873 3.9512818e-07
000220 9a cb 6e b8 ea b5 01 ba 7e 46 4c ba 4c 4c d8 3a
       -5.693324e-05 -0.0004948067 -0.00077924866 0.001650223
000230 be 7a 1c bc dd af 12 bb 0b 3d 61 ba 2a de 6d 34
       -0.009550748 -0.0022382655 -0.0008592165 2.2153168e-07
000240 79 07 b4 b9 45 c4 23 ba f0 a7 2f bb 42 ab 7e bb
       -0.00034337843 -0.0006247203 -0.002680298 -0.0038859402
000250 6f 63 fe 3b 77 af ea ba f2 c2 8e bb 9b bb e5 b4
       0.0077633183 -0.0017905076 -0.0043567354 -4.2791075e-07
000260 a2 19 d6 3a 9a 2f 15 3c 48 e6 73 3c 10 ea ca 3b
       0.0016334543 0.009105587 0.014886446 0.006192453
000270 9a cb 16 3d a7 1b 9d 3c e2 06 5f 3c 4f 61 c6 b4
       0.036815263 0.019178225 0.013612481 -3.6951175e-07
000280 61 f5 0e 3b e0 18 37 3c 7d 96 c2 3c 7a 77 b5 3c
       0.0021813738 0.011175364 0.023753399 0.022151697
000290 ba 71 8d 3c 5b d2 ea 3c 35 54 15 3d 0c e0 3e b4
       0.017266143 0.028664758 0.03645726 -1.7776637e-07
0002a0 54 23 e7 39 14 6f a9 3a c5 03 71 3b d9 7c a4 3b
       0.00044086075 0.0012926781 0.0036775928 0.005019766
0002b0 df 84 2b bc b8 99 18 3b 11 50 a1 3b 76 11 56 35
       -0.010468691 0.0023284983 0.0049228747 7.974662e-07
0002c0 93 02 78 ba 33 94 91 bb 71 a2 16 bc 71 21 f1 bb
       -0.0009460833 -0.0044427156 -0.0091940025 -0.007358723
0002d0 fc 19 5b bc 0d b6 2d bc 8a 55 3b bc fc 32 83 b4
       -0.013372894 -0.010602486 -0.011433968 -2.4437747e-07
0002e0 17 76 29 3a 40 7e 88 3a 64 12 a8 3b 3f 3d 11 3c
       0.0006464435 0.0010413602 0.0051291455 0.0088647
0002f0 00 ce aa bc 22 98 63 3b 9e 3f 25 3c 45 3c 1e b5
       -0.020850182 0.003472813 0.010085968 -5.894729e-07
000300 d3 0c 93 b7 46 c2 00 39 2c fa d5 38 1a 2f 96 b9
       -1.7529737e-05 0.00012279404 0.000102032296 -0.00028645323
000310 17 c3 89 3b a3 3d 3a 3a ab d5 b5 39 94 2e 8b 34
       0.0042041647 0.00071045215 0.00034682205 2.5924658e-07
000320 26 b8 0b b7 9b 5c 7a b9 c6 76 4d b9 51 2c db 39
       -8.327921e-06 -0.00023876356 -0.0001959457 0.00041803953
000330 37 71 42 bb b3 bb 01 ba 77 6d 1a 39 c6 84 4e b5
       -0.0029669532 -0.0004948929 0.00014727363 -7.693419e-07
000340 47 47 35 bb 84 65 af bb 2e b6 ab bc a5 c5 0c bd
       -0.0027660893 -0.005352678 -0.020960893 -0.034368176
000350 ab 66 a9 3d c3 88 4f bc d4 ca 15 bd b2 07 eb b4
       0.082715355 -0.012666884 -0.036570385 -4.377776e-07
000360 5f 71 18 39 b1 5c 88 b8 2d 41 75 3a 7b 0e fa 3a
       0.00014538084 -6.5022505e-05 0.000935572 0.0019077802
000370 a2 8c ae bb 8b b3 39 39 ba 44 ee 3a 10 45 80 34
       -0.0053268233 0.0001770986 0.0018178441 2.3892107e-07
000380 4f 85 4d ba d1 79 c0 bb f4 f4 01 bc 83 7e 2a bb
       -0.0007839994 -0.0058738966 -0.0079319365 -0.0026015348
000390 00 21 df bc 0a ba 20 bc 04 26 78 bb dd 60 14 b5
       -0.027237415 -0.00980998 -0.0037864456 -5.527525e-07
0003a0 66 44 89 ba 4f 51 f9 bb 91 02 32 bc cd 0b 01 bc
       -0.0010472655 -0.0076085697 -0.01086487 -0.007876349
0003b0 fc 73 85 bc 34 65 5e bc c0 84 30 bc 16 10 42 b5
       -0.016290657 -0.013573933 -0.010773838 -7.229404e-07
0003c0 84 6b 67 ba 10 5e 10 bb 9a 5c eb bb f2 6a 37 bc
       -0.0008827972 -0.0022028722 -0.00718267 -0.011194931
0003d0 3b a5 c6 3c a4 d0 9d bb 18 b1 43 bc 7d 74 e4 34
       0.02424871 -0.0048161317 -0.011944078 4.2553066e-07
0003e0 b8 57 f0 39 1b 8a 5b 3b 5d bb a0 3b 9e dd 82 3a
       0.00045841723 0.0033499065 0.004905148 0.000998426
0003f0 76 e7 92 3c da 30 fc 3b 3d 96 99 3b 92 67 8b 33
       0.017932635 0.0076962532 0.0046870993 6.491531e-08

momentum_buffer f4 [64]
000000 22 b6 34 bb 1e f7 1e 3b 03 d4 33 39 13 31 a9 b9
       -0.002757438 0.002425618 0.00017149751 -0.00032270755
000010 7a 5e 3c 3a cb 37 3b ba f8 58 b1 39 87 79 06 3a
       0.0007185709 -0.00071417977 0.00033826358 0.00051298033
000020 89 f3 1d ba 90 54 1c ba 6b 82 33 b9 db 64 88 b8
       -0.0006025364 -0.00059635285 -0.00017119355 -6.503771e-05
000030 84 b8 20 3b 0c 25 95 3a 0b 29 a3 ba 52 be 07 3a
       0.0024524042 0.0011378839 -0.0012448145 0.0005178201
000040 9b 8b 57 39 72 21 19 3a 25 91 b3 39 25 b0 bb ba
       0.00020556005 0.00058414706 0.00034249682 -0.0014319463
000050 5f 90 9a ba d0 9e ab ba 3a 90 c9 3a f7 cf 70 ba
       -0.0011792294 -0.0013093594 0.0015378066 -0.00091862626
000060 23 d6 b8 39 1c 3d c8 37 c8 cd e7 3a f2 12 38 b9
       0.0003525476 2.3870314e-05 0.0017685229 -0.00017554665
000070 08 d5 7d 39 33 4a 81 3a 8d 57 c5 3a 8f ef 15 ba
       0.0002420732 0.0009864032 0.0015055999 -0.0005719596
000080 c6 e7 80 39 91 07 52 3b 70 e8 69 bb 5a 08 70 ba
       0.00024586747 0.0032047967 -0.0035691522 -0.0009156518
000090 32 47 02 39 5a c9 9b 3b 0d 12 97 b8 e4 20 14 39
       0.00012424288 0.0047542276 -7.203603e-05 0.00014126633
0000a0 c4 25 43 3b e7 3d 81 3b 91 a5 97 38 eb a3 8c 3a
       0.0029777149 0.003944147 7.23108e-05 0.0010730004
0000b0 80 93 f4 ba 5e b3 43 bb 09 a0 e9 3a 9c 6b 1e ba
       -0.0018659681 -0.002986155 0.0017824183 -0.0006043257
0000c0 75 db 21 3b cf 89 6d b8 68 ad 40 ba f6 99 e0 38
       0.0024697457 -5.6633548e-05 -0.00073500583 0.0001070983
0000d0 1d 39 1f 3a 98 21 42 ba 06 a0 92 b9 82 5e 65 b9
       0.0006073879 -0.00074055186 -0.00027966517 -0.00021874349
0000e0 4c 86 6c 3b 55 2f f8 3a 4a ad 9e ba a2 34 c9 36
       0.003609079 0.0018935004 -0.0012106088 5.996394e-06
0000f0 94 58 4f ba 0f 3c a0 3a 0b b8 99 ba 01 ea a6 bb
       -0.00079096225 0.001222493 -0.0011727823 -0.0050938134

momentum_buffer f4 [64]
000000 bb a6 28 bc cf e2 36 3c d6 7f a5 3a 88 78 ac ba
       -0.010293658 0.011162474 0.0012626599 -0.001315848
000010 1e a7 27 3c b3 b7 52 bb 3b 75 56 3a fd b2 b4 3a
       0.010232715 -0.003215295 0.0008180921 0.0013786253
000020 82 6b e3 bb 6d e8 41 ba b0 70 80 bb 58 76 6d ba
       -0.006940306 -0.0007397 -0.0039196834 -0.0009058467
000030 9d 51 57 3c 59 92 01 3c ac c0 29 bc bf f9 35 3b
       0.013142017 0.007908427 -0.010360878 0.0027767268
000040 6e b2 dd 3a fe 77 e3 3b ab bc 64 3b 52 99 01 bc
       0.0016914138 0.0069417944 0.0034902494 -0.00791009
000050 b2 df 77 bb 0d 3f 30 bc 1e 17 18 3c 1a c5 86 bc
       -0.0037822542 -0.01075722 0.009282855 -0.016451407
000060 21 88 ae 3a 0e 35 c9 3a a1 a3 40 3c ba 84 89 b9
       0.0013315716 0.0015350895 0.011757762 -0.00026229565
000070 21 72 cc ba 59 ce 2c 3c ca 1a 23 3c f9 94 3a bb
       -0.0015597978 0.010547244 0.0099551175 -0.0028470142
000080 51 b8 27 ba 1c 6a 19 3c e3 35 38 bc 47 ee 12 bc
       -0.000639801 0.009363677 -0.011243316 -0.008967943
000090 83 33 24 3a 30 a0 14 3c 8f ca a1 ba 45 8e 36 3a
       0.00062637794 0.009071395 -0.0012343692 0.0006963949
0000a0 8c 89 ce 3b 12 9d 10 3c 60 92 7e 3a 46 6e 5e 3b
       0.006303018 0.008826511 0.00097111426 0.003394024
0000b0 10 6c e0 bb 86 d6 82 bc 2e 5a 3d 3c c1 21 19 bb
       -0.0068488196 -0.015971433 0.011557145 -0.0023366066
0000c0 f4 93 a1 3b 89 51 9a b9 a3 33 c4 bb ea 2d 15 3b
       0.0049309675 -0.00029433917 -0.005987601 0.0022762963
0000d0 2d 68 f9 3b 96 1e f6 bb 36 1a df bb 90 ff 96 bb
       0.0076112957 -0.0075109703 -0.0068085445 -0.004608102
0000e0 83 b0 41 3c d5 d4 08 3c c5 93 fa bb 47 ca b7 b7
       0.011821869 0.008351524 -0.00764701 -2.1909493e-05
0000f0 64 52 39 bb f8 49 bc 3b af 4e ab bb 72 f8 83 bc
       -0.0028277868 0.0057461224 -0.0052278857 -0.016109679

momentum_buffer f4 [1, 64]
000000 91 aa c4 bd 7b e8 01 bf fa ab ff bb 96 74 c9 bd
       -0.096028455 -0.5074536 -0.0078024836 -0.0983669
000010 dc 3c 18 bf 1a 99 39 3a b6 18 98 39 48 fc 29 ba
       -0.59467864 0.0007080004 0.0002901011 -0.0006484431
000020 44 e1 bf bd a5 e4 52 bd b0 7e 1a bf 58 a5 76 bb
       -0.09369138 -0.051487584 -0.6034956 -0.0037635174
000030 50 6a bc bd 0a 51 8b b9 e5 53 02 bf 6f 96 cc bd
       -0.09199965 -0.00026572525 -0.5090926 -0.099896304
000040 ca 15 bf bb 75 d8 14 3b 36 12 19 bf 68 33 3b b7
       -0.005831455 0.0022712026 -0.5979341 -1.11580375e-05
000050 64 e3 aa 3b 8f 28 cd bb 39 87 02 bf 5d 09 04 bf
       0.0052150954 -0.0062609385 -0.50987583 -0.5157679
000060 bb 83 ee bb c2 ac 1c bf ea 01 ab bd 4b 1f 19 bf
       -0.007278887 -0.6120111 -0.083499745 -0.59813374
000070 43 74 94 bb 39 ec 19 bf ff 47 1a bf f7 d0 ef be
       -0.004530461 -0.6012607 -0.6026611 -0.46839115
000080 fd 95 90 ba 2f 52 81 bc 84 ba 97 b9 9b 7a 17 bf
       -0.0011031028 -0.015786259 -0.0002893993 -0.59171456
000090 86 cd 2d 3b 05 67 d1 3b d0 53 c8 bb d4 e5 83 3a
       0.0026520207 0.0063904547 -0.006113507 0.0010063001
0000a0 a2 cb 40 ba 46 8f db bc 03 08 01 bf 99 6b 10 bf
       -0.00073545624 -0.026801717 -0.5040285 -0.5641418
0000b0 8e 81 5f 3a ec 62 41 bc ff 69 06 bc 7f 83 1b bf
       0.000852608 -0.01180337 -0.008203982 -0.6074752
0000c0 37 f5 e6 bb 1d 07 0e bf 19 2c 7a 39 4e 81 04 bf
       -0.007048275 -0.55479604 0.00023858286 -0.51759803
0000d0 40 02 04 bf 70 7b 1d bf d3 c2 1c bf 3e 29 08 bc
       -0.51565933 -0.61516476 -0.6123478 -0.008310614
0000e0 17 f4 b9 bd 86 d3 96 39 5f 63 94 3a 48 ac 7a bb
       -0.090797596 0.00028767827 0.0011321119 -0.003824966
0000f0 98 55 62 ba f4 3c 59 39 20 00 c7 bd 94 7e 4e 3b
       -0.000863397 0.0002071744 -0.09716821 0.0031508552
