drug_gnn_model.pt (torch, 8554 bytes, 7 tensors)

conv.bias f4 [64]
00000000: 4095 e82c ddb5 e6ac 65a9 0dac 05d7 00ac
00000010: 0b0a da2d b77c 9dac b983 da2d cc55 47ae
00000020: 42a5 6f2b 2d70 0dac ce9a 0eac 12f8 7d2b
00000030: 6ce0 2bae 7774 c22c 29d9 b8ac aee3 f32b
00000040: ed2f 012c 92f7 112d bc5a 182d e505 b12e
00000050: 3ea5 0cad 0ac4 18ad 4b9b 96ab 1f15 8cad
00000060: c056 b0ab 35c5 832b 7cd0 cfad e607 2c2c
00000070: b634 23ae 07ac 58ae e786 ff2a 64ca 6fad
00000080: 38a0 bbad 809c 622d dcdd 90ae 5f49 0cad
00000090: 2560 842b b838 582d bf13 d72c 8e07 0328
000000a0: 30fc ffae 4ffb 432d 3d39 2c2c 17e2 1dad
000000b0: 5319 162c e3bd 0d2e 80af 61ad 00ee c02b
000000c0: 1704 322e c95b b52c 7880 79ad 140f b2ab
000000d0: 8e84 02ad efa0 022d 01e6 a92b 6553 d82d
000000e0: 36ac 93ab 541c 652d f099 352d 5d26 572a
000000f0: 23b4 962e 7ca4 a7ad cbd5 f0ac 4cdd e1ae
6.6104067e-12 -6.557184e-12 -2.0131338e-12 -1.8309254e-12 2.478819e-11 -4.4760545e-12 2.4842227e-11 -4.5323564e-11
8.51392e-13 -2.0099575e-12 -2.0265348e-12 9.0227923e-13 -3.9080225e-11 5.526742e-12 -5.253704e-12 1.7329382e-12
1.8358607e-12 8.297267e-12 8.660347e-12 8.050075e-11 -7.99477e-12 -8.683729e-12 -1.0701243e-12 -1.5925537e-11
-1.252963e-12 9.362846e-13 -2.3625761e-11 2.4447055e-12 -3.7108726e-11 -4.9265505e-11 4.5390707e-13 -1.3630517e-11
-2.133059e-11 1.2881363e-11 -6.587772e-11 -7.97437e-12 9.40585e-13 1.2290773e-11 6.11286e-12 7.273599e-15
-1.1640855e-10 1.1140268e-11 2.4474444e-12 -8.974619e-12 2.133034e-12 3.222834e-11 -1.2828738e-11 1.3708479e-12
4.0476147e-11 5.1545196e-12 -1.4182537e-11 -1.2651846e-12 -7.4190775e-12 7.425379e-12 1.2072011e-12 2.4593392e-11
-1.0492776e-12 1.3023433e-11 1.032284e-11 1.9109146e-13 6.853209e-11 -1.9058748e-11 -6.844946e-12 -1.02711256e-10

conv.lin.weight f4 [64, 8]
00000000: 350f 22bc 757d 783b f647 b73b 77f6 0cbc
00000010: 8439 6e3b 116c 0a3c 5a61 193a e969 c5bb
00000020: b059 063c 94e5 8b3b 9949 d93b 92f7 dcbb
00000030: fdcc bc3b 32b5 dfbb 5179 223c 82d6 8abb
00000040: 0d72 c53b 2b2b 033b c19b 2d3b e605 c9ba
00000050: 9866 863b 169d 88bb a66e 1abc 94ca 7bbb
00000060: 6c5f 003c 328e 2cbb dfeb 4d3b 7769 72bb
00000070: 2ded f53b e016 c43b d03b 673b 597f a7bb
00000080: 99db 05bc 4220 ca39 48d1 bfbb c2db 063c
00000090: 2127 1dbc 5ae6 923b bb80 233c 881c a43b
000000a0: 2e64 5f3b 90c0 1dbc 076e 1d3c eeff e0ba
000000b0: 4858 19bc b78e 213c 5b90 85bb f075 39ba
000000c0: 7bf7 153c 2008 e3bb 60ae e7bb 6855 d53a
000000d0: e093 adba 2350 173b 2262 09bc 00cc 9c39
000000e0: 89a9 91bb 6ab1 a0bb 4da3 15bc 9853 ae3b
000000f0: 5ad6 ff3a f11b 0abc 236c 023c 94ab 453b
00000100: 5129 f33a 3d5c c0bb 9153 c53a 68bf 1d3c
00000110: 20a5 e13b c037 ffbb 1b6f 153c f02f 4b3a
00000120: fe98 9d3b 377e fe3b 0ba8 0b3c ec7c ffbb
00000130: 5689 0f3c 0491 debb e31f 443a 8af8 e4bb
00000140: c4b1 0fbb c9bf edb9 6902 9dba ce78 cfba
00000150: 63b3 513a 3f9d 213c 2442 be3b be53 b73b
00000160: 141e 833b 6e6c fd3b 19a2 f7b9 b7b5 4f3a
00000170: fb77 043b a719 0fbc c60c 04bc 30b2 a03a
00000180: d122 80bb a372 3cb9 c236 15bb b2ec cf3a
00000190: f532 d33b cd75 58bb 7bc9 033c 9e5c 013c
000001a0: dc6d fbbb e1a3 fcbb 2142 04bc 701c b3bb
000001b0: 5411 7ebb 9a2d 40ba d962 1ebb 528f a5bb
000001c0: b976 50bb 46af 6ebb a219 203c 53b8 74bb
000001d0: eb37 ecbb 9dd7 863b 93fd 1fba 28dc fa3b
000001e0: ffc0 cc3b 9886 163c 37ea efbb 36c9 d23b
000001f0: b84f 093c dbc8 a1bb 46ac 163c 9ca4 f53b
00000200: e971 e538 d8f3 9d3b 5b32 65bb 06e5 0ebc
00000210: bc32 253b 264a 433b f122 d6bb b8ec 9e3b
00000220: 39f3 0bbc be0f 0d3c 9eb8 1e3c ad6d 323b
00000230: 3638 cdbb 53a8 9f3b 45a2 df3a 6834 323b
00000240: ee6a 573b 657c f93b 9fbb 8cbb 5e0a 13bb
00000250: 5dc7 313b c013 8f3a 823a 043c 331c acbb
00000260: 26c5 c1b9 3068 f03a 806e 31bb b341 de3b
00000270: caa6 873a b457 18bc d954 93ba 1c9f 94bb
00000280: aca6 7d3a 0b58 9bba 7b37 23bc 22ed f3ba
00000290: cff5 80ba 4b6b 44bb 049f 153c bcff 0ebb
000002a0: c181 d23b cc83 223b ba4a 0abc 48c0 193b
000002b0: c92e 083c 4b41 d6bb 11f3 d3bb e85f 203c
000002c0: 99af 033c cf5d b6bb 15ee c53b 0f3e a5ba
000002d0: f426 21bc 2179 4b3a c53e 553b 1495 44bb
000002e0: 94ee 633b 1c1c 0cbc cbdc e23b 1679 0b3c
000002f0: aac4 b53b 3693 dd3a 88da 563b 9617 edbb
00000300: 72c4 23bb dfbd 7aba 376a b6bb b60b f2bb
00000310: 6913 dc3b b048 de3b aecf 14bc 188b 503b
00000320: 1d4d 853b 80a7 1b3c 7597 bd3b b99e 163c
00000330: 6d55 56bb 8d87 e53b 6d43 053c fdb7 1abc
00000340: d272 03bc 9deb 043b efe9 b33b 25dc a0bb
00000350: e28f 773a 86b7 5036 6d12 2a3b 2614 b0bb
00000360: 46d2 b83b b9f6 d93b 855e e3bb 0847 c838
00000370: 9731 1238 4482 523b c697 183c 7031 403b
00000380: dfbb 14bb 5370 133c 8ab2 77bb 455e 3dbb
00000390: 0eec 3f3a 81a4 f8bb 297b 903a a652 debb
000003a0: 7636 873a 64af 803a b8ca b93a 74b9 09bc
000003b0: 252d 1bbc adf7 973b 3cf9 0c3c 1863 11bc
000003c0: 28d2 723b 961f f1bb e7f6 263a 9ab4 183c
000003d0: d73d f73b 3b5c efbb 4f4c cb3b 2427 ab3b
000003e0: e864 91b7 8f7c 1e3c 10c6 82bb 0f47 19bb
000003f0: 2871 a6bb 89d7 b93a aac2 2c3b 80e0 503a
-0.009891321 0.0037916575 0.005593295 -0.008603684 0.00363502 0.008448617 0.00058509933 -0.0060245884
0.008200094 0.004269311 0.006631088 -0.00674338 0.005761741 -0.00682702 0.009916619 -0.004236997
0.006025559 0.0020014744 0.0026490542 -0.0015336841 0.0041015856 -0.0041691167 -0.009425795 -0.0038420307
0.00783525 -0.0026329872 0.0031421108 -0.0036989131 0.00750508 0.005984172 0.0035283454 -0.0051116166
-0.008170032 0.00038552476 -0.0058538057 0.008231105 -0.009591849 0.0044830265 0.009979422 0.005008284
0.0034086811 -0.00962843 0.009608752 -0.0017166117 -0.009359427 0.009860686 -0.0040760464 -0.0007074764
0.009153242 -0.006928459 -0.0070703477 0.0016276063 -0.0013242923 0.0023088537 -0.008385213 0.0002990663
-0.004445259 -0.004903962 -0.009133172 0.0053200237 0.0019518838 -0.008429513 0.007960352 0.0030162083
0.0018551742 -0.0058703707 0.0015054812 0.009628154 0.0068861395 -0.0077886283 0.009120728 0.00077509787
0.004809498 0.007766511 0.008523951 -0.0077968743 0.008760771 -0.0067921896 0.0007481558 -0.006987636
-0.0021926025 -0.00045347054 -0.0011978868 -0.0015828849 0.0007999448 0.009864151 0.0058062244 0.0055946996
0.0040013883 0.007733873 -0.00047232283 0.0007923501 0.0020213115 -0.008734143 -0.008059686 0.0012260135
-0.0039104004 -0.00017971783 -0.0022768234 0.0015863387 0.0064452835 -0.00330292 0.008043642 0.007895617
-0.0076730084 -0.0077099656 -0.008072407 -0.0054660365 -0.0038767653 -0.0007331014 -0.0024167805 -0.0050524855
-0.0031809045 -0.003642039 0.009771736 -0.003734131 -0.0072088144 0.0041150586 -0.0006103154 0.007655639
0.006248593 0.009187363 -0.0073216218 0.0064326776 0.008380823 -0.004937274 0.009196347 0.0074964296
0.00010940788 0.004820328 -0.003497264 -0.008721596 0.0025207242 0.0029798835 -0.006534927 0.0048499964
-0.0085418755 0.00860971 0.009687571 0.0027226016 -0.0062628044 0.0048723607 0.001706191 0.002719188
0.0032870132 0.007613706 -0.004294827 -0.00224366 0.0027126886 0.001091592 0.00807059 -0.005252385
-0.00036958716 0.0018341597 -0.002707392 0.0067827343 0.001034939 -0.009298254 -0.0011240497 -0.004535569
0.000967602 -0.00118518 -0.009961958 -0.00186101 -0.0009838882 -0.0029971178 0.009132151 -0.002181991
0.0064241593 0.0024797795 -0.008440668 0.0023460556 0.008311936 -0.0065385452 -0.0064681848 0.009788491
0.008037471 -0.005565382 0.0060403445 -0.0012606996 -0.009835947 0.0007761885 0.0032538634 -0.0029996084
0.0034779655 -0.008551624 0.006923293 0.008512756 0.005547126 0.0016904834 0.0032784063 -0.0072354777
-0.0024988917 -0.0009565036 -0.005566861 -0.00738665 0.006716181 0.0067835674 -0.009082718 0.0031821188
0.0040680305 0.009500384 0.0057858774 0.009193116 -0.0032704726 0.0070046843 0.008133751 -0.00944328
-0.008022981 0.0020282038 0.0054905335 -0.004909056 0.00094437425 3.110124e-06 0.0025950924 -0.0053734956
0.005640301 0.006651726 -0.006938758 9.549974e-05 3.4855297e-05 0.0032121101 0.009313529 0.0029326342
-0.0022694988 0.008998948 -0.0037795627 -0.00288953 0.00073212467 -0.00758797 0.0011023033 -0.006784755
0.0010315913 0.0009817895 0.0014174795 -0.008406032 -0.0094712125 0.0046376796 0.008604344 -0.008873723
0.0037051532 -0.0073585017 0.0006369189 0.0093204025 0.0075452137 -0.007304696 0.006204165 0.005223172
-1.7332335e-05 0.009673252 -0.003990896 -0.0023388301 -0.0050794072 0.0014178614 0.0026361146 0.00079680234

bn.weight f4 [64]
00000000: 07cf cc3d abca cc3d b1cc cc3d 0ccd cc3d
00000010: 50cc cc3d 48cd cc3d 62cc cc3d f8cb cc3d
00000020: 7acd cc3d 53cd cc3d 03cd cc3d b1cc cc3d
00000030: afca cc3d 1fcb cc3d bacd cc3d 55cc cc3d
00000040: a6cc cc3d 92cc cc3d 73cc cc3d 63ce cc3d
00000050: 1ece cc3d e2cd cc3d 7ccb cc3d aecd cc3d
00000060: 6fcc cc3d d7cc cc3d e5ca cc3d 07cd cc3d
00000070: 53cc cc3d 2dcc cc3d 62cb cc3d 12cd cc3d
00000080: 75cc cc3d 4cca cc3d 9ed0 cc3d 1ecd cc3d
00000090: c1cc cc3d f6c8 cc3d d5cc cc3d a0cc cc3d
000000a0: beca cc3d 76c9 cc3d c1cc cc3d e2cb cc3d
000000b0: c3ce cc3d 1ecf cc3d 40cb cc3d 54cd cc3d
000000c0: 77ca cc3d e8cc cc3d d9cd cc3d dfcc cc3d
000000d0: 3dcc cc3d aecd cc3d d2cc cc3d 2ecd cc3d
000000e0: 90c9 cc3d c8ca cc3d cdcd cc3d cdcc cc3d
000000f0: 65cd cc3d ebca cc3d e2cd cc3d 9ad1 cc3d
0.10000425 0.09999593 0.09999979 0.10000047 0.09999907 0.10000092 0.099999204 0.099998415
0.10000129 0.100001 0.100000404 0.09999979 0.09999596 0.0999968 0.10000177 0.09999911
0.09999971 0.09999956 0.09999933 0.10000303 0.10000251 0.100002065 0.09999749 0.10000168
0.0999993 0.100000076 0.099996366 0.10000043 0.09999909 0.09999881 0.0999973 0.100000516
0.099999346 0.099995226 0.10000728 0.100000605 0.09999991 0.09999268 0.10000006 0.099999666
0.099996075 0.09999363 0.09999991 0.09999825 0.10000374 0.10000442 0.09999704 0.10000101
0.099995546 0.1000002 0.100002 0.100000136 0.09999893 0.10000168 0.10000004 0.100000724
0.099993825 0.09999615 0.10000191 0.1 0.100001134 0.09999641 0.100002065 0.10000916

bn.bias f4 [64]
00000000: ab0d 5b37 ac77 89b7 38ca bbb5 c12f d235
00000010: fec1 6db7 cb4e 9836 0b34 3bb5 e71c 34b6
00000020: f7fa 2937 df1e 9735 d67e ca36 77af 0bb6
00000030: d3f9 94b7 dad2 4cb7 bb9d 8337 4a53 81b6
00000040: f06d 03b6 62bd 05b7 9f41 b4b6 9f2c 4137
00000050: 0282 bd36 c39a 4d37 16a2 4fb7 4d6d b437
00000060: c49c 13b6 d70d e6b4 35be 9eb7 3f3b 0e36
00000070: 0e1f cdb5 9975 6cb7 d566 60b7 f67c 6936
00000080: a00f 57b5 e7d1 47b7 3f33 9937 fb29 2c37
00000090: 93e4 2cb5 d51c 4fb7 99c5 6d35 0e22 91b5
000000a0: 15d6 06b7 c7bd 59b7 ab05 ddb5 2dbd 9cb6
000000b0: 7327 1937 129f 9d37 6cf3 6eb7 dfdf 6936
000000c0: 48b3 0cb7 2e83 1f35 0655 2537 a9bd 57b5
000000d0: 6839 39b7 d806 4037 d738 cb36 32d3 d536
000000e0: 4692 85b7 8a22 67b7 d510 1c37 79c0 a632
000000f0: afac 8536 c93c 51b7 7c9a f936 1758 af37
1.30565995e-05 -1.63874e-05 -1.3991439e-06 1.5660117e-06 -1.4171468e-05 4.5391257e-06 -6.973866e-07 -2.6838914e-06
1.0131617e-05 1.1259361e-06 6.0348348e-06 -2.0814748e-06 -1.7759308e-05 -1.220844e-05 1.5689866e-05 -3.8541957e-06
-1.9584513e-06 -7.971512e-06 -5.3720573e-06 1.1514086e-05 5.647774e-06 1.2254985e-05 -1.23759e-05 2.150857e-05
-2.1995957e-06 -4.2850908e-07 -1.892364e-05 2.1194135e-06 -1.5282728e-06 -1.40940765e-05 -1.3375383e-05 3.4792442e-06
-8.011648e-07 -1.1910196e-05 1.8262885e-05 1.0261773e-05 -6.440761e-07 -1.2344874e-05 8.857692e-07 -1.0813253e-06
-8.036867e-06 -1.2978394e-05 -1.6467433e-06 -4.6711853e-06 9.128696e-06 1.8789931e-05 -1.42425815e-05 3.4850016e-06
-8.386392e-06 5.942301e-07 9.854562e-06 -8.0369733e-07 -1.1040225e-05 1.1445685e-05 6.0564885e-06 6.372481e-06
-1.592295e-05 -1.3776715e-05 9.302244e-06 1.941247e-08 3.983812e-06 -1.2471523e-05 7.4387626e-06 2.0902646e-05

bn.running_mean f4 [64]
00000000: 4793 a33b bd99 873b 1107 8fba 4432 b83b
00000010: 48ff 313a b9e2 f739 7917 b8bb a4df 8cbb
00000020: 7991 713b a375 883b a734 8e3b 2c64 18bb
00000030: 1213 173b eae4 1ebc 4518 3b3a f47f a53b
00000040: d487 1abb 3d01 e33b 38eb 503b 193e 07bb
00000050: 8e30 87bb 59bb 48bb 3923 b4ba 3978 d93b
00000060: 9178 12bb af4d 3d3c c14f 013b f3c0 393b
00000070: d235 21bb 1408 82ba 0d98 293b 5203 80b9
00000080: b0ab 8ebb 63d0 003b 1da9 f1bb 1cd0 143b
00000090: 4792 8f3b 66da c8bb 9741 efba 22cb c1bb
000000a0: bc9a 08bb be22 363b 33f0 0a3a cee1 2f3a
000000b0: 89ef cfbb 4696 07b8 11a6 d4ba 7f80 f83b
000000c0: 5492 d1b9 8fc4 45bb 7167 40bc d96d ee3b
000000d0: 5c43 8a3b 0fec 183c 1f08 b43b dcf6 e939
000000e0: 7eee 593b ce84 58bb d7f5 9cbb 9e44 623a
000000f0: 80ed 02ba 6741 a2bb 2b04 813b 3734 a9bb
0.004991922 0.0041382 -0.001091214 0.0056212265 0.0006790054 0.00047280433 -0.0056180325 -0.004299121
0.003686039 0.004164414 0.0043397727 -0.0023253066 0.0023052138 -0.009698132 0.00071371003 0.0050506536
-0.0023579495 0.006927638 0.0031878483 -0.0020636378 -0.004125661 -0.0030629246 -0.0013743407 0.006636646
-0.0022349695 0.011554166 0.0019731375 0.0028343766 -0.002459873 -0.000992062 0.0025877983 -0.00024416536
-0.004353963 0.0019655458 -0.007374896 0.002270705 0.0043814513 -0.0061295507 -0.00182538 -0.005914108
-0.0020844182 0.0027791704 0.00053000747 0.0006709368 -0.0063456935 -3.232646e-05 -0.0016223808 0.0075836773
-0.0003997261 -0.0030176973 -0.011743412 0.0072762785 0.0042194556 0.0093336245 0.005494132 0.00044625148
0.0033253725 -0.0033038142 -0.0047900486 0.00086314406 -0.00049944967 -0.004951644 0.0039372644 -0.005163695

bn.running_var f4 [64]
00000000: 88e7 3d3e 5e13 3e3e 3f8e 3e3e b81d 3e3e
00000010: 3c35 3f3e ec02 3e3e 86b3 3e3e faca 3d3e
00000020: 7279 3e3e 1ec7 3d3e 6583 3e3e 61b6 3e3e
00000030: 68ed 3d3e 9d46 3f3e 93f3 3d3e e531 3e3e
00000040: 3eb8 3e3e 8160 3f3e 060b 3e3e 3be0 3d3e
00000050: 9ec5 3d3e 3a29 3f3e 090b 3e3e 8df8 3e3e
00000060: 7a19 3f3e ee7b 423e d1ce 3d3e 5e4e 3e3e
00000070: 190f 3e3e 4124 3e3e 680c 3e3e 35c6 3d3e
00000080: 0e5f 3e3e 95f2 3d3e a24d 3e3e 3b97 3e3e
00000090: 6b43 3e3e 2ed6 3d3e 8887 3e3e ee3f 3e3e
000000a0: 3dc1 3d3e 0bd9 3d3e 240b 3e3e 47c9 3d3e
000000b0: 95f3 3d3e 0047 3e3e f286 3e3e bd42 3e3e
000000c0: 9fdc 3d3e 83cc 3d3e 4ddf 403e d161 3e3e
000000d0: 7d5c 3e3e 76f8 3e3e 67c6 3e3e eef4 3d3e
000000e0: d90c 3e3e a6e3 3d3e bb6c 3e3e 11d1 3d3e
000000f0: 8fc3 3d3e b825 3e3e e1fb 3d3e 06d1 3d3e
0.18545353 0.18562075 0.1860895 0.18566024 0.18672651 0.18555802 0.1862317 0.1853446
0.18601015 0.18532988 0.1860481 0.1862426 0.18547595 0.1867928 0.18549947 0.18573721
0.1862497 0.18689157 0.18558893 0.18542568 0.18532416 0.1866807 0.18558897 0.18649502
0.18662062 0.18992588 0.18535925 0.18584582 0.18560447 0.18568517 0.1855942 0.18532641
0.18590948 0.18549569 0.18584302 0.18612377 0.18580405 0.18538734 0.18606389 0.18579075
0.18530746 0.18539827 0.18558937 0.18533812 0.1854995 0.18581772 0.18606165 0.18580146
0.18541192 0.18535046 0.18835182 0.18592001 0.18589969 0.18649468 0.18630372 0.18550465
0.18559588 0.18543872 0.18596165 0.18536784 0.18531631 0.18569076 0.18553115 0.18536767

output.0.weight f4 [1, 64]
00000000: 088f ad3b b40d 0cbc 9999 9eba 95b5 6e3a
00000010: cb22 013c 4d98 6dbb 818e 3c3b 8644 cb3a
00000020: 91b6 cb3b 3ed4 293a d7bb 943b 2bd4 c5bb
00000030: c965 d9bb 1702 123c 7d27 e0bb d591 b4ba
00000040: 5499 9dba c21a 203c 7431 b6ba 1881 f9bb
00000050: 9aaf 26bb 5b4b a93b e482 903b ea04 0f3c
00000060: 619b 05bb 989f b43b a4bf 15bc 5c75 983b
00000070: 83b1 963b 2d9f ec3b 3c82 a2bb 382e 14bb
00000080: 079c 1e3b a15d e8bb b863 02bc a216 11bc
00000090: 1dab 0f3a faff ca3b 42cb 283b d18a 1f3a
000000a0: c804 643b ccf5 ccbb 5c10 c43a 6e9a eeba
000000b0: ac66 a2bb 0e82 0d3c 9e2e fdbb 118f 123b
000000c0: 3fda 0fbc 9462 ab39 32ae 91bb 668f 753b
000000d0: 5f30 a9bb 88ec eb3b 6fcc efbb 0f0f c53b
000000e0: b801 ecbb b558 af3b 8616 8abb 3a03 b5b7
000000f0: 1e9e efba f29d d43b 83cb 6b3b 9388 10bc
0.0052965917 -0.008548189 -0.0012100219 0.00091060373 0.00788183 -0.0036254108 0.0028771462 0.0015508092
0.006216832 0.0006478465 0.004538994 -0.0060372553 -0.006634448 0.008911631 -0.006840645 -0.0013776371
-0.0012023845 0.009772005 -0.0013900236 -0.007614266 -0.0025434257 0.005166454 0.0044101346 0.008729199
-0.0020386802 0.005512189 -0.009139929 0.004652662 0.0045987978 0.0072211237 -0.004959373 -0.0022610556
0.0024201886 -0.0070912396 -0.007958345 -0.008855494 0.0005480515 0.0061950656 0.0025755917 0.0006086054
0.003479289 -0.006254887 0.0014958489 -0.0018203983 -0.004956087 0.0086369645 -0.0077265045 0.0022363106
-0.008780061 0.00032689108 -0.0044458145 0.0037469505 -0.005163237 0.0071998276 -0.0073180716 0.006013758
-0.0072023533 0.005351151 -0.004214111 -2.1578384e-05 -0.0018281376 0.006488555 0.0035979457 -0.008821624
